models/model.tflite (tflite, 141848 bytes, 16 tensors)

arith.constant f4 [32]
0	0xbbe68eab	-0.0070360503
1	0xbba16f18	-0.0049265735
2	0x3c01df50	0.007926777
3	0x3bbf84ae	0.005844674
4	0x3c2be009	0.010490426
5	0x38bf9173	9.134682e-05
6	0x3b200a58	0.0024420228
7	0x3c2c6552	0.0105222035
8	0x3ba03b44	0.0048898775
9	0x3b41b907	0.0029559748
10	0x3b11ba72	0.0022236374
11	0x3af42893	0.0018627815
12	0x39b4abaf	0.0003446019
13	0x3b205092	0.0024462086
14	0x39a7c295	0.00031997697
15	0xbc8614f1	-0.016367408
16	0xbbb09147	-0.005388412
17	0x3bc1fdb3	0.005920136
18	0x3b48d62d	0.0030645237
19	0x3960d0e3	0.00021440121
20	0x3b2784c0	0.0025561303
21	0xbaa16fb8	-0.001231662
22	0x3b27857e	0.0025561745
23	0x3babdb0e	0.005244619
24	0x3b15d22e	0.0022860873
25	0x3c25bb2d	0.010115427
26	0xba94d5b5	-0.0011355194
27	0xba5b3649	-0.0008362276
28	0x3c481ea9	0.012214341
29	0x3af9b486	0.0019050993
30	0x3a446828	0.0007492327
31	0xbc6ee95b	-0.0145820035

arith.constant1 f4 [32, 3, 3, 1]
0	0x3de07610	0.10960019
1	0xbc2155ad	-0.009847087
2	0xbd15eb96	-0.036601625
3	0xbc8d62c2	-0.017259005
4	0xbda5710e	-0.08078204
5	0x3daf5e05	0.08562855
6	0xbe157d9c	-0.14598697
7	0x3d159c0b	0.036525767
8	0x3da887c0	0.08229017
9	0x3dea739c	0.11447832
10	0xbdc87231	-0.09787405
11	0x3b111e8d	0.0022143454
12	0x3dc46c73	0.095909975
13	0xbde8bcb0	-0.11364114
14	0x3db91573	0.09037294
15	0xbc8568cc	-0.016285323
16	0x3d4d811e	0.050171964
17	0xbdce036d	-0.10059247
18	0x3da1b986	0.07896714
19	0xbc17c015	-0.0092621045
20	0xbd4aeb4c	-0.049540803
21	0xbe1372d0	-0.14399266
22	0xbdc0e5cc	-0.0941883
23	0xbe2e0ab3	-0.16996269
24	0xbd7e1905	-0.06203558
25	0x3d27c9b6	0.04096385
26	0x3dcf7af4	0.10130873
27	0xbdd3a698	-0.103345096
28	0x3d89a029	0.06720001
29	0xbd84c2b3	-0.064824484
30	0x3de25898	0.11052054
31	0x3e08fd52	0.13377884
32	0x3df78a6b	0.12086948
33	0xbb9475f2	-0.0045306617
34	0xbdd8bc6c	-0.105828136
35	0xbd7283a0	-0.05920756
36	0x3d685804	0.056724563
37	0x3d9e32c3	0.07724526
38	0xbc072219	-0.008247876
39	0x3e083282	0.13300517
40	0xbd3cffc1	-0.046142343
41	0x3d918734	0.07105866
42	0xbca72c15	-0.020406762
43	0xbd2dd105	-0.042435665
44	0xbd0a8758	-0.03382048
45	0xbbf6d990	-0.0075332597
46	0x3d429e70	0.04751438
47	0x3d0fe909	0.03513435
48	0x3de02547	0.1094461
49	0x3cdd52aa	0.027016956
50	0xbdd97009	-0.10617072
51	0xbb5c53ff	-0.0033619402
52	0x3db7887c	0.08961579
53	0xbdbb9a12	-0.09160246
54	0x3d1a9eab	0.037748974
55	0xbddb1c58	-0.106987655
56	0xbdfeab32	-0.12434997
57	0x3d324b0d	0.043528605
58	0xbdb23fad	-0.087035514
59	0xbd92b113	-0.071626805
60	0x3dcdce3f	0.10049104
61	0x3d8c139f	0.0683968
62	0x3e078319	0.13233604
63	0xbde2c2cc	-0.11072311
64	0xbe03a687	-0.12856494
65	0x3d472af1	0.048624936
66	0x3dfa9fb6	0.12237494
67	0x3dfb2a67	0.12263947
68	0x3ca1ab4f	0.019735007
69	0x3d9c8710	0.07642949
70	0x3d613b3a	0.054988123
71	0xbcf91961	-0.03040761
72	0xbc89a084	-0.016800173
73	0xbe15013d	-0.14551254
74	0xbe10cd4b	-0.14140813
75	0x3d508275	0.050905664
76	0x3da625a7	0.0811265
77	0x3d9a99ff	0.07548904
78	0x3d7f2c58	0.06229815
79	0xbc1bc946	-0.009508437
80	0x3d047845	0.03234126
81	0xbd4124fd	-0.047154415
82	0x3cf3b89e	0.029751118
83	0x3d061692	0.03273637
84	0x3d334498	0.043766588
85	0x3d3a3216	0.045457922
86	0x3ce5ba27	0.028042866
87	0xbdcf8d5a	-0.101343825
88	0xbdea42fe	-0.11438559
89	0xbba94135	-0.005165244
90	0xbd4fc73c	-0.050727114
91	0xbdb47ffb	-0.08813473
92	0x3d023321	0.03178704
93	0x3d8ed149	0.06973512
94	0xbe0a0bdb	-0.13481085
95	0xbdd0617a	-0.10174842
96	0x3d17bea0	0.03704703
97	0x3df2f154	0.11862436
98	0x3db833b3	0.08994236
99	0xbdc386a3	-0.09547164
100	0xbcd69c16	-0.026197474
101	0x3c816262	0.015793983
102	0xbbde791c	-0.0067893397
103	0xbdcb4018	-0.09924334
104	0x3e07fd83	0.13280301
105	0xbd9fe9fa	-0.07808299
106	0xbcbf6ae2	-0.023366395
107	0x3e126683	0.14296918
108	0x3b8acbb6	0.00423571
109	0x3dd57c32	0.10424079
110	0xbca98465	-0.020693013
111	0x3d83d872	0.06437768
112	0x3e0426c6	0.12905416
113	0xbe02c2df	-0.1276965
114	0x3cce87e8	0.02521129
115	0x3cf1b234	0.02950392
116	0xbdd31dd3	-0.10308423
117	0x3c111610	0.008855358
118	0x3dacafe9	0.0843199
119	0x3c4c1bbe	0.012457786
120	0x3dd0b876	0.10191433
121	0xbdd20d0c	-0.10256395
122	0xbe060fba	-0.13091937
123	0xbd52adb4	-0.051435187
124	0xbe10dece	-0.14147493
125	0xbc8f2f46	-0.017478596
126	0x3d124712	0.03571231
127	0xbd1662ef	-0.036715444
128	0x3db4a8d5	0.08821265
129	0x3c088707	0.008332974
130	0x3da0f063	0.0785835
131	0xbe036d0a	-0.12834564
132	0xbd9fad99	-0.07796783
133	0x3d4195f5	0.04726215
134	0x3db449ad	0.08803115
135	0xbdd0b42f	-0.10190617
136	0xbd152c7f	-0.036419388
137	0xbdc0a66f	-0.09406745
138	0x3c763323	0.01502684
139	0x3d8f09b2	0.06984271
140	0xbda60e06	-0.081081435
141	0xbd98c7e9	-0.07460005
142	0xbcad94e5	-0.021189163
143	0xbd49fce2	-0.049313433
144	0x3dd77f64	0.10522345
145	0xbdb6e92e	-0.08931194
146	0xbdef99a9	-0.1169923
147	0xbb5aa5ba	-0.003336294
148	0xbd0f47e2	-0.034980662
149	0xbd5edd11	-0.054410044
150	0x3dfb88ba	0.12281938
151	0xbdbe115e	-0.09280656
152	0xbbc16081	-0.0059013967
153	0xbe05a420	-0.1305089
154	0xbc54add2	-0.012980895
155	0xbe1728af	-0.14761613
156	0xbdb480fd	-0.08813665
157	0xbd90b420	-0.07065606
158	0x3d1c654a	0.038182534
159	0x3c1fb846	0.009748524
160	0xbca992da	-0.020699907
161	0x3df36a32	0.118854895
162	0x3b178b6b	0.002312387
163	0xbd2209af	-0.039560016
164	0x3dad3e60	0.08459163
165	0x3dcc1ea2	0.0996678
166	0xbd02f493	-0.031971525
167	0xbdadedce	-0.08492623
168	0x3dc34d66	0.09536247
169	0x3e061ca5	0.13096865
170	0x3dbe419c	0.09289858
171	0xbd8da809	-0.06916816
172	0xbd639bab	-0.05556838
173	0xbbfd422e	-0.0077288365
174	0x3dd19a25	0.10234479
175	0x3be610b2	0.007021033
176	0x3c350516	0.011048576
177	0x3c1fd476	0.0097552445
178	0x3e105693	0.14095525
179	0x3e0152b6	0.12629208
180	0x3b9938cd	0.0046759606
181	0x3d9c7c77	0.07640927
182	0x3d9fedd3	0.07809033
183	0x3c7ce9e9	0.015436628
184	0x3c4aa8c7	0.012369341
185	0x3d927b56	0.07152431
186	0xbdad6178	-0.08465856
187	0xbd843c5f	-0.06456827
188	0xbddf8717	-0.10914438
189	0x3dbed7bc	0.09318492
190	0x3df0ae1f	0.11751961
191	0x3dbbb0a5	0.09164552
192	0xbdb5a239	-0.08868832
193	0x3dae6e2d	0.08517108
194	0xbddbf7c0	-0.10740614
195	0x3d0d5302	0.03450299
196	0xbd48c2cc	-0.049013898
197	0xbddf2606	-0.10895924
198	0x3de2684a	0.11055048
199	0xbc4e5602	-0.012593748
200	0xbd0f1213	-0.034929346
201	0xbdd89951	-0.10576118
202	0x3b42c92c	0.0029721959
203	0xbdd5cec6	-0.104398295
204	0x3d4e52ea	0.05037204
205	0xbe025131	-0.12726285
206	0x3dc16cd6	0.09444587
207	0x3e0991b1	0.13434483
208	0x3c1bf2be	0.0095183235
209	0xbd381aef	-0.04494756
210	0x3d95e92e	0.07319866
211	0xbd5ef00b	-0.05442814
212	0xbd5606b6	-0.052252494
213	0x3dacce11	0.084377415
214	0xbd96f616	-0.07371156
215	0x3d146e66	0.036238097
216	0xba82c602	-0.0009977224
217	0x3dec6952	0.11543526
218	0xbe0e225e	-0.13880298
219	0xbe06cc58	-0.13163888
220	0x3c9c3bb7	0.019071443
221	0x3e0597e0	0.13046217
222	0x3d3de268	0.046358496
223	0x3dc14315	0.09436623
224	0x3dc78954	0.0974299
225	0x3d881648	0.06644875
226	0x3dee7a76	0.11644451
227	0xbda0ffdf	-0.078613035
228	0xbd8ce2d9	-0.06879205
229	0x3dba27fc	0.09089658
230	0x3d5418dc	0.05178152
231	0x3c604e7c	0.013690587
232	0xbddcbde6	-0.10778408
233	0xbdb3c57d	-0.08777902
234	0x3c4e4da2	0.012591751
235	0xbc8debb3	-0.017324304
236	0xbe0cf507	-0.13765346
237	0x3da6e1a2	0.08148505
238	0x3d809a7a	0.06279464
239	0xbe350c95	-0.17680581
240	0xbd925801	-0.07145692
241	0xbda367de	-0.079787955
242	0x3ded8c9d	0.115990855
243	0x3bf0fa5f	0.0073540653
244	0xbd81574c	-0.06315479
245	0xbddd9462	-0.108193174
246	0xbdd1d0ce	-0.102449045
247	0xbdd35237	-0.103184156
248	0x3da0947f	0.078408234
249	0x3d8ed236	0.06973688
250	0x3b73f0e3	0.0037222437
251	0x3ccd07fa	0.025028218
252	0x3d6dd421	0.05806363
253	0x3d9bfc08	0.076164305
254	0x3dfd27a4	0.123610765
255	0xbd5ed687	-0.054403808

arith.constant2 f4 [128]
0	0xbf263b7b	-0.6493451
1	0xbf780516	-0.9688276
2	0xbe2f8ec4	-0.17144305
3	0xbe441bfe	-0.19151303
4	0xbf06cb03	-0.5265352
5	0xbeaad227	-0.3336346
6	0xbf2db789	-0.6785818
7	0xbe9e4ae1	-0.30916503
8	0xbf104130	-0.5634947
9	0xbe81ed95	-0.25376573
10	0xbf147de1	-0.58004576
11	0xbf3f1eed	-0.74656564
12	0xbf29723c	-0.6618993
13	0xbe7c1e68	-0.24620974
14	0xbee0159a	-0.4376648
15	0xbeb94e63	-0.36192617
16	0xbeb8add8	-0.36070132
17	0xbea25816	-0.3170783
18	0xbee320a7	-0.4436085
19	0xbef9bcdd	-0.48776904
20	0xbf656b7a	-0.8961712
21	0xbebba09b	-0.3664597
22	0xbf17ddb0	-0.59322643
23	0xbe777af7	-0.24168001
24	0xbe3ab2b4	-0.18232232
25	0xbe91b2fe	-0.28456873
26	0xbe48ec7b	-0.1962146
27	0xbf54fa2a	-0.8319422
28	0xbf3f4531	-0.7471495
29	0xbedefccb	-0.4355224
30	0xbefd2bfc	-0.4944762
31	0xbecfc671	-0.40581086
32	0xbe824d59	-0.25449637
33	0xbef19e68	-0.47191167
34	0xbe19c040	-0.15014744
35	0xbf098e64	-0.53732896
36	0xbeaf9b4d	-0.34298173
37	0xbecf95a1	-0.40543845
38	0xbe76c550	-0.24098706
39	0xbe10eefa	-0.14153662
40	0xbf43f95c	-0.7655237
41	0xbeddb774	-0.43304026
42	0xbe9887c0	-0.2979107
43	0xbf233eac	-0.63767505
44	0xbf0271e0	-0.5095501
45	0xbf19fdc0	-0.60152817
46	0xbe9880a2	-0.2978564
47	0xbebcff7a	-0.36913663
48	0xbf271652	-0.65268433
49	0xbdf39765	-0.118941106
50	0xbed8c3b4	-0.4233681
51	0xbe39e6e7	-0.18154489
52	0xbebf1cb7	-0.37326595
53	0xbe551641	-0.2080927
54	0xbf2584c2	-0.646557
55	0xbe906067	-0.2819855
56	0xbed7a4e0	-0.42117977
57	0xbe401b5a	-0.18760434
58	0xbe984256	-0.2973811
59	0xbeaa5d14	-0.33274138
60	0xbf04f5d7	-0.5193762
61	0xbec3638f	-0.38161895
62	0xbf3677d8	-0.7127662
63	0xbea02f2e	-0.31285995
64	0xbec5803a	-0.38574392
65	0xbf2dcf08	-0.6789403
66	0xbe5a6e1e	-0.21331069
67	0xbe731e63	-0.2374206
68	0xbf1aac01	-0.6041871
69	0xbeeb9008	-0.46008325
70	0xbf18db0b	-0.59709233
71	0xbf3aeb7f	-0.7301559
72	0xbe8c904a	-0.27453834
73	0xbf308686	-0.68955266
74	0xbea88e41	-0.3292103
75	0xbf42a20e	-0.76028526
76	0xbf1291b1	-0.5725356
77	0xbe9b5073	-0.30334815
78	0xbf0c5e82	-0.5483171
79	0xbf0680cf	-0.52540296
80	0xbf42ead4	-0.7613957
81	0xbe13f49e	-0.14448783
82	0xbf00fa96	-0.50382364
83	0xbf121e9a	-0.57077944
84	0xbf07cb36	-0.5304445
85	0xbdf67364	-0.12033728
86	0xbf59390f	-0.8485269
87	0xbf1e55bd	-0.61849576
88	0xbf24b911	-0.6434489
89	0xbf879c6a	-1.0594609
90	0xbf03feb6	-0.51560533
91	0xbeee414b	-0.4653419
92	0xbe20a767	-0.15688859
93	0xbe9773fa	-0.2958067
94	0xbeeaedaa	-0.45884448
95	0xbf2f20b8	-0.684093
96	0xbf249233	-0.6428558
97	0xbe9efb6b	-0.31051192
98	0xbf051b48	-0.5199475
99	0xbe988b69	-0.29793862
100	0xbe9991e1	-0.2999411
101	0xbf4d7ec3	-0.8027155
102	0xbf20cb1a	-0.6280991
103	0xbef2b317	-0.4740226
104	0xbef65629	-0.4811261
105	0xbf08faa6	-0.5350746
106	0xbe923c7c	-0.2856177
107	0xbeeddeda	-0.46459085
108	0xbefd33ca	-0.49453574
109	0xbee01136	-0.4376313
110	0xbe8394cf	-0.2569947
111	0xbf362623	-0.7115194
112	0xbe3c08f5	-0.18362792
113	0xbe97b10d	-0.29627267
114	0xbf16e131	-0.58937365
115	0xbe834f5b	-0.2564648
116	0xbef029cf	-0.46906897
117	0xbefc2926	-0.49250144
118	0xbe15cec2	-0.14629653
119	0xbf0e3eff	-0.55564874
120	0xbf39ccd3	-0.7257816
121	0xbf3d5ecc	-0.73972774
122	0xbec63aa7	-0.38716623
123	0xbefa4836	-0.48883218
124	0xbe968e17	-0.2940528
125	0xbeb0ddfb	-0.34544358
126	0xbf14acdf	-0.5807628
127	0xbea62027	-0.32446405

arith.constant3 f4 [128]
0	0x40374e36	2.8641486
1	0x3fc2e84b	1.522714
2	0x41318f40	11.097473
3	0x413555dd	11.333463
4	0x40167443	2.350846
5	0x40868513	4.2037444
6	0x3fabd4c6	1.3424308
7	0x40bcd0d0	5.90049
8	0x4062290b	3.533755
9	0x40d4f79d	6.655226
10	0x403962cf	2.8966558
11	0x3fc6de22	1.553654
12	0x3f920541	1.1407853
13	0x41041692	8.25551
14	0x408ad156	4.3380537
15	0x40990c1c	4.782728
16	0x40b4648d	5.6372743
17	0x40ce4006	6.4453154
18	0x409bc6b3	4.8680053
19	0x4039617b	2.8965747
20	0x3fcd41ad	1.6035668
21	0x4083ee17	4.1228137
22	0x3fd31dba	1.6493447
23	0x414b662f	12.712447
24	0x415eea39	13.932183
25	0x41055bb2	8.334887
26	0x41226fff	10.152343
27	0x3ff804c4	1.9376454
28	0x3fddc2ee	1.7325113
29	0x407a8113	3.914128
30	0x40141f30	2.3144035
31	0x40a5d57b	5.1823096
32	0x4127ce68	10.487892
33	0x403914b3	2.8918884
34	0x4183d236	16.477642
35	0x4007d4f6	2.122373
36	0x40a2c517	5.086559
37	0x408a09f7	4.3137164
38	0x4103174f	8.193191
39	0x41646a1e	14.2759075
40	0x3fe19192	1.762255
41	0x403ef19c	2.9834967
42	0x40d367d9	6.6064267
43	0x3facfd44	1.351479
44	0x4017672c	2.365672
45	0x402e4ab1	2.7233088
46	0x40e8bc2c	7.27297
47	0x40a82f6b	5.2557883
48	0x3fc85c6e	1.5653207
49	0x413c9065	11.785253
50	0x404f8514	3.2424974
51	0x41326a2b	11.15092
52	0x40a83302	5.2562265
53	0x411915b4	9.567799
54	0x4035ce99	2.8407347
55	0x40c027f2	6.004876
56	0x4081958d	4.0495057
57	0x40e8c417	7.2739367
58	0x40c6ee26	6.216571
59	0x40b180ac	5.546957
60	0x4009be66	2.152246
61	0x40607311	3.507023
62	0x4024ea81	2.576813
63	0x4108e306	8.555426
64	0x40ecdd07	7.401981
65	0x40017cbb	2.023238
66	0x4112a987	9.1663885
67	0x411670f9	9.402581
68	0x3fee6338	1.8624029
69	0x4070da0d	3.7633088
70	0x3fe09913	1.7546715
71	0x3fc7e4cf	1.5616702
72	0x40b5aec7	5.677585
73	0x400f656c	2.2405653
74	0x40ce83cc	6.4535885
75	0x40077d6b	2.11703
76	0x402273eb	2.538325
77	0x40bc734b	5.889074
78	0x406d8db6	3.7117743
79	0x40488b52	3.1335034
80	0x3fcdcc1d	1.6077915
81	0x41519f02	13.10132
82	0x40178de6	2.3680358
83	0x402513db	2.579337
84	0x400d6ca3	2.2097557
85	0x415affcd	13.687451
86	0x3fac6225	1.3467451
87	0x402b9bea	2.6813912
88	0x4017fd15	2.374822
89	0x3fbb998e	1.4656236
90	0x406c7483	3.6946113
91	0x4058f375	3.3898594
92	0x414ce93e	12.806944
93	0x40a8d50a	5.2760057
94	0x40559374	3.3371248
95	0x3fd9c933	1.7014526
96	0x3ff2b46c	1.896131
97	0x40d4a4ce	6.6451178
98	0x40523622	3.284554
99	0x40d75ef8	6.730343
100	0x40a25661	5.0730443
101	0x3ff2f840	1.898201
102	0x3ff425f2	1.907408
103	0x405ef55c	3.4837255
104	0x40297b2a	2.6481423
105	0x40260a8c	2.5943937
106	0x412bbbdb	10.733363
107	0x40750d7e	3.8289485
108	0x4069c5d9	3.6527007
109	0x4037cc93	2.8718612
110	0x410ed63a	8.927301
111	0x40183485	2.3782055
112	0x413f8384	11.969608
113	0x411385f2	9.2202015
114	0x400ea6e0	2.2289352
115	0x40dc5642	6.8855295
116	0x40511a39	3.2672255
117	0x3febb562	1.8414729
118	0x4185571d	16.667536
119	0x4044a8ed	3.0728104
120	0x401305e8	2.2972355
121	0x3fb8cc7a	1.4437401
122	0x4083030a	4.094121
123	0x403ac24a	2.9181085
124	0x411ec44e	9.922926
125	0x40ce10cb	6.43955
126	0x4009616a	2.1465707
127	0x40c351af	6.103721

arith.constant4 f4 [32]
0	0xbe63ec52	-0.22258118
1	0xbe9502aa	-0.29103595
2	0x3c836b60	0.016042411
3	0xbf8543d4	-1.0411325
4	0xbfca1d69	-1.5790225
5	0xbf86b2bc	-1.0523295
6	0xbe5d0684	-0.21584517
7	0xbfbcc652	-1.4748023
8	0xbe3ffff6	-0.18749985
9	0xbdaca84c	-0.084305376
10	0xbdf2f2e2	-0.118627325
11	0xbe083c00	-0.13304138
12	0xbf7f0a8f	-0.99625486
13	0xbc97f9f2	-0.0185518
14	0xbf8f3416	-1.118777
15	0xbd1d5ce8	-0.03841868
16	0x3b587d80	0.0033033788
17	0xbd0d521a	-0.034502126
18	0xbfd77f0b	-1.6835645
19	0xbfc38da8	-1.5277605
20	0xbe875bdb	-0.26437268
21	0xbf34f9db	-0.7069375
22	0x3d0912e2	0.033465274
23	0xbf9405c1	-1.1564256
24	0xbfc15c16	-1.5106227
25	0xbebe1430	-0.37124777
26	0x3c47576a	0.012166837
27	0x3d3ff186	0.046861194
28	0xbfd47002	-1.6596682
29	0xbf3dfe58	-0.7421622
30	0xbfb96a37	-1.4485539
31	0xbfbb9ac3	-1.4656605

arith.constant5 f4 [32]
0	0x41f4b674	30.589088
1	0x41ea4f42	29.2887
2	0x41ffb61f	31.963926
3	0x41ad241e	21.642635
4	0x418956e2	17.167423
5	0x41b71e7e	22.889889
6	0x41c39b50	24.450836
7	0x41879128	16.945877
8	0x41c695e0	24.823181
9	0x41f60b3c	30.755486
10	0x41e88c05	29.068369
11	0x41d6ccf7	26.85008
12	0x41a5e1ef	20.73532
13	0x42024937	32.5715
14	0x41c38f8f	24.445097
15	0x41fcec28	31.61531
16	0x41f65f32	30.796482
17	0x41fc7db1	31.561373
18	0x41310db2	11.065844
19	0x41543068	13.261818
20	0x41d3ee16	26.491253
21	0x41b297dd	22.324152
22	0x41fe9b8c	31.82595
23	0x41aa0f4b	21.257467
24	0x4169fbe4	14.623997
25	0x41e38968	28.442093
26	0x42071a4b	33.775677
27	0x42001070	32.016052
28	0x416de51d	14.868436
29	0x41c87524	25.057198
30	0x418c095b	17.504568
31	0x414485be	12.282652

arith.constant6 f4 [64]
0	0xbf14e815	-0.5816663
1	0xbf52a785	-0.82286865
2	0xbf0c9e94	-0.5492947
3	0xbecde1e4	-0.40211403
4	0xbf05da8e	-0.52286613
5	0xbf0f9f1f	-0.56102175
6	0xbebd7c10	-0.37008715
7	0xbee0e933	-0.43927917
8	0xbed1fc3a	-0.41012746
9	0xbf0724b4	-0.5279038
10	0xbea18b33	-0.31551513
11	0xbeadc3bd	-0.339384
12	0xbea0c24a	-0.3139823
13	0xbe995ee9	-0.29955223
14	0xbf0432d0	-0.51640034
15	0xbec5d565	-0.3863937
16	0xbf38d3d5	-0.7219823
17	0xbebcd39d	-0.36880198
18	0xbf2102b8	-0.62894773
19	0xbf290e70	-0.66037655
20	0xbf4e750f	-0.8064737
21	0xbee94b19	-0.45565107
22	0xbed8dcd2	-0.42355973
23	0xbeee4da3	-0.46543607
24	0xbf17c42b	-0.59283704
25	0xbec6acea	-0.38803798
26	0xbf0128f5	-0.5045312
27	0xbf1a78fa	-0.60340846
28	0xbec10908	-0.37702203
29	0xbeb07ff0	-0.3447261
30	0xbf22003a	-0.63281596
31	0xbee3cb19	-0.4449089
32	0xbf1eb480	-0.6199417
33	0xbec19c9e	-0.37814802
34	0xbf040d91	-0.515832
35	0xbf276106	-0.6538242
36	0xbeeba869	-0.46026924
37	0xbf0f725c	-0.56033874
38	0xbed63496	-0.41836995
39	0xbf0bd21d	-0.5461748
40	0xbf0d4e0f	-0.5519723
41	0xbed52e69	-0.4163697
42	0xbeec21b8	-0.46119475
43	0xbf0d441a	-0.5518204
44	0xbee9fec6	-0.4570219
45	0xbeb348d6	-0.35016507
46	0xbe90dbff	-0.28292844
47	0xbef51837	-0.47870037
48	0xbf1d395e	-0.6141566
49	0xbee9e1af	-0.45679995
50	0xbf08dee6	-0.53465116
51	0xbe33284e	-0.17495844
52	0xbef31290	-0.474751
53	0xbefbf834	-0.492128
54	0xbed34dff	-0.41270444
55	0xbf149fe5	-0.5805648
56	0xbf2629e8	-0.64907694
57	0xbed987f5	-0.4248654
58	0xbeb5d016	-0.3551032
59	0xbeec42be	-0.4614467
60	0xbeee9214	-0.46595824
61	0xbef9c30b	-0.48781618
62	0xbeed5bb1	-0.46359017
63	0xbf2eb114	-0.6823895

arith.constant7 f4 [64]
0	0x40c9e6d8	6.309429
1	0x3fe74039	1.8066474
2	0x412bfbc0	10.748962
3	0x40ecd94a	7.4015245
4	0x40afeb13	5.4974456
5	0x407ca7f1	3.9477503
6	0x40b8967e	5.7683706
7	0x40fe1a35	7.940699
8	0x40af79c4	5.483614
9	0x4086bf67	4.2108645
10	0x4046a5b1	3.103863
11	0x40a1e6f7	5.059444
12	0x40851e90	4.159981
13	0x40b45d07	5.636356
14	0x40ce2cbb	6.4429603
15	0x415e26bb	13.884456
16	0x406050a8	3.5049229
17	0x413c50c2	11.769716
18	0x409a5171	4.8224416
19	0x4054973b	3.3217304
20	0x40de15c6	6.940158
21	0x40e5d7bd	7.1825852
22	0x40e569df	7.1691737
23	0x40925692	4.5730677
24	0x4063316a	3.549891
25	0x4120e2dd	10.055387
26	0x409fa7eb	4.989248
27	0x41253fb5	10.328053
28	0x40b21258	5.564739
29	0x4139f225	11.621617
30	0x403cfb3b	2.952834
31	0x40933093	4.5996795
32	0x40aea95d	5.458174
33	0x40c7c46e	6.242728
34	0x40047e1d	2.0701973
35	0x404a2f35	3.1591313
36	0x403e6a62	2.975243
37	0x40c8563c	6.2605267
38	0x406a8fec	3.6650343
39	0x404b4600	3.1761475
40	0x40db2b08	6.849003
41	0x4117f3ca	9.497019
42	0x403e105e	2.969749
43	0x40872daf	4.2243266
44	0x4150ebeb	13.057597
45	0x4089ea1f	4.309829
46	0x411de511	9.868424
47	0x40b1e293	5.558908
48	0x40a3e2a9	5.1214185
49	0x409ad8e1	4.8389745
50	0x40972e6d	4.724417
51	0x41a96b73	21.177465
52	0x4068feee	3.6405597
53	0x406cb805	3.6987317
54	0x40b1bb92	5.554147
55	0x402146fd	2.5199578
56	0x40639ab7	3.556318
57	0x40172dd0	2.3621712
58	0x40f45f17	7.6366076
59	0x40ee20e8	7.441517
60	0x40796c27	3.897226
61	0x40508787	3.258272
62	0x4036fa05	2.85901
63	0x3fcce9a1	1.6008798

arith.constant9 f4 [4]
0	0xbc62a2a9	-0.0138327265
1	0x3c4b2eb9	0.012401276
2	0xba42b5a4	-0.0007427579
3	0x3ae31341	0.0017324464

arith.constant10 f4 [256]
0	0x3cc6ab89	0.024251716
1	0x3d5bb3ce	0.053638272
2	0x3d40294e	0.04691439
3	0x3d3fe3e9	0.04684821
4	0x3d09a7de	0.033607356
5	0x3d74beab	0.059752148
6	0x3d670397	0.056399908
7	0x3d864070	0.06555259
8	0x3d006b61	0.031352405
9	0x3c96baa9	0.018399553
10	0x3d0fa999	0.03507385
11	0x3d5d7a9d	0.05407201
12	0x3c94ff69	0.018188195
13	0x3d21c933	0.03949852
14	0x3d50a3f3	0.050937604
15	0x3d09dad7	0.033655968
16	0x3d1bb9a6	0.038018845
17	0x3cfd6894	0.030933656
18	0x3d999a1b	0.075000964
19	0x3d119e1e	0.035551183
20	0x3ce25199	0.0276268
21	0x3d375795	0.04476126
22	0x3d1f52a8	0.038897187
23	0x3d25a0b5	0.040436465
24	0x3cbf1756	0.023326557
25	0x3d84ff05	0.064939536
26	0x3d1a69ab	0.03769843
27	0x3c598e6e	0.013278587
28	0x3d5238cf	0.05132371
29	0x3d57951a	0.05263243
30	0x3d88b458	0.06675023
31	0x3da816d9	0.08207483
32	0x3d2f26f5	0.04276176
33	0x3d19425a	0.037416793
34	0x3d39ee47	0.045393255
35	0x3cf37bb1	0.029722067
36	0x3cd77ce9	0.026304679
37	0x3d054ec2	0.032545812
38	0x3d0b14ef	0.03395551
39	0x3c5228d7	0.01282712
40	0x3cf1ca28	0.02951534
41	0x3b57efd4	0.0032949345
42	0x3d03c9f2	0.032175012
43	0x3d347c65	0.044063944
44	0x3d7355c9	0.059407983
45	0x3d3f0780	0.046638012
46	0xba92d657	-0.0011202794
47	0x3d457bae	0.048213653
48	0x3aad6297	0.0013228235
49	0x3d07fa3e	0.033197634
50	0x3cf33c18	0.02969174
51	0x3b958e9d	0.00456412
52	0x3b58f4f6	0.0033104992
53	0x3cbc1a81	0.022961857
54	0x3b45d997	0.0030189508
55	0x3d4bbcd7	0.04974064
56	0x3d628f6b	0.055312555
57	0x3c4f1e64	0.012641523
58	0x3cbf1aa0	0.023328125
59	0x3d6b2c0c	0.057415053
60	0x3cc8aafb	0.024495592
61	0x3d8d2d22	0.06893374
62	0x3d5d93db	0.054096084
63	0x3d0caa7f	0.034342285
64	0x3d8491a9	0.06473095
65	0x3bb9f520	0.005674973
66	0x3d721d4f	0.059109982
67	0x3cbb3e2f	0.0228568
68	0x3d03ae7f	0.032148834
69	0x3d09a231	0.033601943
70	0x3d6fa827	0.058509972
71	0x3d41677b	0.047217827
72	0x3d797ab3	0.06090803
73	0x3d4a4ada	0.04938779
74	0x3d630a01	0.055429462
75	0x3d192368	0.03738728
76	0x3d66da9d	0.05636083
77	0x3cf669a1	0.030079665
78	0x3d7ebf35	0.062194068
79	0x3caa8435	0.020814994
80	0x3d6e094d	0.05811434
81	0x3d67e4f7	0.056614842
82	0x3ca069fd	0.01958179
83	0x3d64bd4c	0.05584459
84	0x3d6f6880	0.05844927
85	0x3d2e2a85	0.04252102
86	0x3ceb5396	0.02872638
87	0x3d232267	0.03982773
88	0x3ce036db	0.027369907
89	0x3cce6dec	0.0251989
90	0x3d3f3c03	0.04668809
91	0x3d12c2e0	0.03583038
92	0x3c3b7ed1	0.01144381
93	0x3d22867d	0.03967904
94	0x3d50e715	0.051001627
95	0x3d0c26f3	0.034216832
96	0x3d441682	0.047873028
97	0x3d1d1b5d	0.038356174
98	0x3d04197b	0.032250863
99	0x3d21e9c8	0.03952959
100	0x3c9ea08b	0.019363662
101	0x3c16f521	0.009213717
102	0x3d0b3bb2	0.033992477
103	0x3d3e07e8	0.04639426
104	0x3d3e0e6b	0.04640047
105	0x3d3199b4	0.043359473
106	0x3d1ac9be	0.037790053
107	0x3d0eb21d	0.03483783
108	0x3d260feb	0.040542524
109	0x3d1dfe14	0.038572386
110	0x3d32f96b	0.043694895
111	0x3d4f67b0	0.050635993
112	0x3d407bb7	0.046992984
113	0x3d109bd0	0.035304844
114	0x3ca74a90	0.020421296
115	0x3d2e7d6d	0.042600084
116	0x3cc497d6	0.023998182
117	0x3ccd1f05	0.025039205
118	0x3cecd085	0.028908024
119	0x3d5e1353	0.054217648
120	0x3caa2bb8	0.0207728
121	0x3d052abd	0.03251146
122	0x3d21376c	0.039359495
123	0x3d138e39	0.036024306
124	0x3d5ffe0b	0.054685634
125	0x3d488540	0.048955202
126	0x3d8cb90e	0.06871234
127	0x3cfa912b	0.0305868
128	0x3a2e8275	0.0006657013
129	0x3d26d1d2	0.040727444
130	0x3d0f9cf5	0.035061795
131	0x3d6ea452	0.058262177
132	0x3c2338dc	0.009962287
133	0x3d36a5e4	0.0445918
134	0x3d18fb1d	0.037348855
135	0x3d34e0a6	0.044159554
136	0x3d2e3fe7	0.04254141
137	0x3cb25766	0.02177019
138	0x3d5f6e88	0.05454877
139	0x3d41e5aa	0.047338165
140	0x3d173dc9	0.036924157
141	0x3d10fe65	0.03539886
142	0x3d2840a1	0.04107726
143	0x3d09fe8b	0.033690017
144	0x3d212a72	0.03934712
145	0x3da1750a	0.078836516
146	0x3cc3d94f	0.023907332
147	0x3d36da45	0.04464175
148	0x3d32e564	0.043675795
149	0x3d461617	0.04836091
150	0x3caeca08	0.02133657
151	0x3c8a0b03	0.016850954
152	0x3d28b609	0.041189227
153	0x3d2649e3	0.040597808
154	0x3cb9125c	0.022591762
155	0x3cb2c526	0.021822523
156	0x3d962940	0.073320866
157	0x3d576f98	0.05259666
158	0x3d205916	0.03914746
159	0x3d38ea8e	0.045145564
160	0x3cd655f0	0.026164025
161	0x3d112b7a	0.035441853
162	0x3d4f6337	0.050631728
163	0x3d0c09c5	0.034189004
164	0x3d4ac92b	0.049508255
165	0x3d091f70	0.033477247
166	0x3d010fcd	0.03150921
167	0x3cfae33f	0.030625938
168	0x3d58dc5c	0.052944526
169	0x3d76b7aa	0.06023375
170	0x3d087531	0.033314887
171	0x3d18a837	0.037269797
172	0x3d594bd4	0.05305083
173	0x3d172132	0.036896892
174	0x3d26e10d	0.04074197
175	0x3d77cdd6	0.060499035
176	0x3cedaf8e	0.029014375
177	0x3d06fa72	0.032953687
178	0x3d486780	0.04892683
179	0x3d20a061	0.03921545
180	0x3cabe635	0.020983795
181	0x3d08b104	0.03337194
182	0x3ce1ef33	0.02757988
183	0x3d3f6513	0.04672725
184	0x3d7159a7	0.05892339
185	0x3d54546a	0.051838316
186	0x3c81f75e	0.015865024
187	0x3d47eb54	0.04880841
188	0x3d304231	0.043031875
189	0x3d35d3aa	0.04439131
190	0x3d5460f6	0.05185028
191	0x3cbf0aa1	0.023320498
192	0x3c9da2f1	0.019242736
193	0x3d762b0a	0.06009964
194	0x3c8566be	0.016284343
195	0x3d045314	0.032305792
196	0x3d196aef	0.037455495
197	0x3d12aaae	0.035807304
198	0x3d374a92	0.04474885
199	0x3d6affc8	0.05737284
200	0x3d0f2c1f	0.034954187
201	0x3d033776	0.032035314
202	0x3d2b3fa5	0.041808743
203	0x3da8540f	0.08219158
204	0x3bf5a180	0.007496059
205	0x3c9ec385	0.01938034
206	0x3ca46d1e	0.020071562
207	0x3d406a5d	0.046976436
208	0x3d762163	0.060090434
209	0x3d28c4a4	0.041203156
210	0x3cdf151a	0.027231742
211	0x3c9f4187	0.019440426
212	0x3d46384e	0.04839354
213	0x3d5529c0	0.05204177
214	0x3c644fc5	0.013935034
215	0x3d08e459	0.033420894
216	0x3d3c9f18	0.04605016
217	0x3cceff69	0.025268273
218	0x3d189c11	0.03725821
219	0x3d94f55a	0.072733596
220	0x3d4d5220	0.05012715
221	0x3d482017	0.04885873
222	0x3ca40e80	0.020026445
223	0x3cbd00e9	0.023071723
224	0x3d12a7b4	0.035804465
225	0x3ce2c6c1	0.027682664
226	0x3d301515	0.042988855
227	0x3d4a5c3f	0.04940438
228	0x3ca1bfc4	0.019744761
229	0x3cc92468	0.024553493
230	0x3d109f77	0.035308328
231	0x3d6ff28c	0.05858092
232	0x3bf5e2aa	0.007503827
233	0x3d264e46	0.04060199
234	0x3c2a8e52	0.010409908
235	0x3d26426a	0.04059068
236	0xba00af48	-0.00049089314
237	0x3d0b9b08	0.034083396
238	0x3d80d8b0	0.0629133
239	0x3cdd5392	0.027017388
240	0x3d18b711	0.03728396
241	0x3d5b542a	0.053547062
242	0x3cfd2e9b	0.030906012
243	0x3d66531f	0.056231614
244	0x3d035c72	0.032070585
245	0x3d565831	0.0523302
246	0x3d1176b1	0.035513584
247	0x3cfddad4	0.030988134
248	0x3cf50c0b	0.02991297
249	0x3d0e3eda	0.03472791
250	0x3d5080ce	0.050904088
251	0x3d1aa4e2	0.0377549
252	0x3d233ac8	0.03985098
253	0x3d384e65	0.044996638
254	0x3d49aff1	0.049240056
255	0x3d0c69ec	0.034280702

arith.constant11 f4 [128]
0	0x3ce26b54	0.027639069
1	0x3c1d6a38	0.009607844
2	0xbd474737	-0.0486519
3	0xbd0e9b2d	-0.034815956
4	0xbd155da1	-0.036466245
5	0xbd3ad330	-0.04561156
6	0xbd817310	-0.063207746
7	0x3bfa3b03	0.0076364293
8	0xbc884df5	-0.016638735
9	0xbd46e9f9	-0.048562977
10	0x3be534a1	0.0069947992
11	0xbcbbe327	-0.022935463
12	0xbcb4d544	-0.02207435
13	0xbc958cd8	-0.018255636
14	0xbd846464	-0.064644605
15	0xbd39322c	-0.045213863
16	0xbc3727d6	-0.011178931
17	0xbcc2560e	-0.023722675
18	0xbd096bf4	-0.033550218
19	0x3bd21166	0.0064107655
20	0xbcc9b666	-0.024623107
21	0xbcefbdc2	-0.029265288
22	0x3ad6a0d3	0.0016374834
23	0xbadb4b1e	-0.0016730761
24	0xbd27a5d7	-0.04092964
25	0xbc9ebcf3	-0.019377207
26	0xbd3efd06	-0.04662802
27	0xbbb47674	-0.005507285
28	0xbb923682	-0.0044620642
29	0xbcada8d9	-0.021198677
30	0xbd4b78ef	-0.049675878
31	0xbcc74b27	-0.024327828
32	0xbd2bbc2d	-0.041927505
33	0xbcae73d2	-0.021295462
34	0xbd90fb34	-0.07079163
35	0xbd03a45e	-0.032139175
36	0xbd280f83	-0.041030418
37	0xbc4e49ff	-0.012590884
38	0xbcfa1db5	-0.030531744
39	0xbd119c48	-0.035549432
40	0xbc4726dc	-0.012155261
41	0xbd47d0c2	-0.04878307
42	0xbd0913d4	-0.033466175
43	0xbd09efb8	-0.03367588
44	0xbd6fd11f	-0.058549043
45	0x3c9724da	0.01845019
46	0xbd6cc309	-0.057803188
47	0xbcc5a0f4	-0.0241246
48	0xbdb4d0cb	-0.088288866
49	0xbd823912	-0.063585415
50	0xbce10a23	-0.027470654
51	0xbd308e44	-0.043104425
52	0xbbc713bf	-0.006075352
53	0xbcd1bf3f	-0.025603889
54	0xbc9f077a	-0.019412745
55	0xbc175795	-0.00923719
56	0x3a7f44e0	0.0009737741
57	0xbd22095d	-0.03955971
58	0xbd36f87f	-0.044670578
59	0xbd75a58d	-0.059972335
60	0xbce43048	-0.027855054
61	0x3b909c9f	0.004413202
62	0x3a470e3c	0.00075933686
63	0xbbc48551	-0.005997338
64	0x3c2577b1	0.010099337
65	0xba6deb65	-0.0009075909
66	0xbca7e2f7	-0.020493967
67	0xbcf8e0fd	-0.03038072
68	0xbd5d791f	-0.05407059
69	0xbc2fb82e	-0.010725064
70	0xbd735757	-0.059409466
71	0xbcb5c28a	-0.02218749
72	0xbd398361	-0.04529131
73	0x3b4236b1	0.002963465
74	0xbbee7393	-0.007276961
75	0xbd235d6a	-0.03988401
76	0xbcb6b89a	-0.022304822
77	0xbd15bf8d	-0.03655963
78	0x3c8083a8	0.015687779
79	0xbce9b204	-0.028527267
80	0xbc8e8aae	-0.017400112
81	0xbd267d38	-0.04064676
82	0xbd0b7dee	-0.034055643
83	0xbd6744ca	-0.056462087
84	0x3c4000e7	0.011718965
85	0xbd9feb82	-0.078085914
86	0xbd136226	-0.035982274
87	0xbc2533a7	-0.010083116
88	0x3cbbbb3c	0.022916429
89	0x3c1d0327	0.009583271
90	0xbcdf200b	-0.027236959
91	0xbcb48179	-0.022034394
92	0xbcf73ed6	-0.03018133
93	0x3b5e4dd1	0.0033920894
94	0xbc18fbac	-0.009337347
95	0xbbd1ddcd	-0.0064046145
96	0xbce36616	-0.02775864
97	0xbd73713e	-0.059434168
98	0xbba0691d	-0.004895343
99	0xbcc2f0d7	-0.023796482
100	0xbcbea1ad	-0.023270452
101	0xbce1aad9	-0.027547287
102	0xbd3f8a0e	-0.04676252
103	0xbd261430	-0.040546596
104	0xbd38438e	-0.0449863
105	0xbceb1e20	-0.028700888
106	0xbc23ae7a	-0.009990329
107	0xbd5a9132	-0.053361125
108	0xbd09bba8	-0.03362623
109	0x3c9d711d	0.019218976
110	0xbd37b691	-0.044851843
111	0x3c9eeb1d	0.01939922
112	0xbd1fb61d	-0.038992036
113	0xbbecbe08	-0.007224802
114	0xbd37ec14	-0.044902876
115	0xbd0eb314	-0.03483875
116	0xbd096a6f	-0.03354877
117	0xbc1ce187	-0.009575254
118	0xbd623f16	-0.055235945
119	0xbcc3e28a	-0.023911733
120	0xbced7a03	-0.028988844
121	0xbc922092	-0.017837796
122	0xbd1346c6	-0.035956167
123	0xbce5ae15	-0.02803711
124	0x3bd8df34	0.0066184048
125	0x3bda00c3	0.006652923
126	0xbd255612	-0.040365286
127	0xbc70a281	-0.014687181

arith.constant12 f4 [64]
0	0x3cbe1b45	0.023206363
1	0x3d10f6fe	0.0353918
2	0xbcbad2ce	-0.022805598
3	0xbc27f840	-0.0102520585
4	0x3b5391b7	0.0032282898
5	0x3ceb3d7e	0.028715845
6	0xbc5c05e3	-0.013429138
7	0xbcca31fb	-0.024682036
8	0x3bbc207b	0.0057411767
9	0x3bcb3d13	0.006202349
10	0x3c0572aa	0.008145014
11	0x3c7310ef	0.01483558
12	0xbc662753	-0.014047462
13	0xbd0a4a21	-0.0337621
14	0x3d064212	0.032777853
15	0xbd746864	-0.059669867
16	0x3c2b4753	0.010454017
17	0xbc0f543c	-0.00874811
18	0x3b8e0cc4	0.004335018
19	0x3d07e15a	0.033173896
20	0x3cb5bc5b	0.022184541
21	0x3c4a9110	0.012363687
22	0xbc02722d	-0.007961792
23	0x3c2e34bc	0.01063269
24	0x3cc4597c	0.02396845
25	0xbc09539b	-0.0083817495
26	0xbc180b9f	-0.009280114
27	0xbcad5668	-0.021159366
28	0xbd1554c4	-0.036457792
29	0xbc83f313	-0.016107118
30	0x3c8e4f77	0.017371876
31	0xbbeca2c6	-0.0072215525
32	0xbc90c9e7	-0.0176744
33	0xbbb1c17f	-0.005424678
34	0x3cf4b192	0.029869828
35	0xbaa51f52	-0.0012597835
36	0xbc4771a2	-0.012173088
37	0x3c4093bc	0.011753973
38	0xbb013ddf	-0.0019720716
39	0x3b92cf05	0.004480245
40	0x3c870b95	0.016485015
41	0xbbffafe0	-0.0078029484
42	0x3c091443	0.008366647
43	0x3d54ca49	0.051950727
44	0xbbcaa862	-0.0061846236
45	0x3cadab19	0.02119975
46	0xbca61e78	-0.0202782
47	0x3cdacbd3	0.02670852
48	0x3d285eef	0.04110616
49	0x3c4456dd	0.0119836
50	0xbc97c78b	-0.018527767
51	0xbd33f7c0	-0.043937445
52	0x3b7e23cf	0.0038778668
53	0xbbb830a6	-0.0056210337
54	0xbcc5ec64	-0.024160571
55	0xbc612f94	-0.013744254
56	0x3d196105	0.03744604
57	0xbc1f15e3	-0.009709808
58	0xbc276dc7	-0.010219044
59	0x3bbf38ed	0.0058356435
60	0x3be7f42a	0.007078667
61	0x3ce634d3	0.02810136
62	0x3c712aae	0.014719648
63	0xba835e43	-0.0010022599

tfl.pseudo_qconst i1 [128, 3, 3, 64]
0	0x31	49
1	0x4f	79
2	0x3a	58
3	0x51	81
4	0x4c	76
5	0x26	38
6	0xe0	-32
7	0xfc	-4
8	0x9e	-98
9	0xd2	-46
10	0x28	40
11	0x42	66
12	0x9f	-97
13	0xc0	-64
14	0x0d	13
15	0xd3	-45
16	0x07	7
17	0x00	0
18	0xc0	-64
19	0xad	-83
20	0xe8	-24
21	0xdf	-33
22	0xff	-1
23	0xdb	-37
24	0xe0	-32
25	0x48	72
26	0xcb	-53
27	0x3c	60
28	0x3a	58
29	0x9e	-98
30	0x2d	45
31	0xc1	-63
32	0x20	32
33	0xfc	-4
34	0xb8	-72
35	0x5d	93
36	0xb6	-74
37	0x05	5
38	0x37	55
39	0xf7	-9
40	0x47	71
41	0x12	18
42	0x3e	62
43	0x09	9
44	0x8c	-116
45	0xd0	-48
46	0x13	19
47	0x37	55
48	0x18	24
49	0xd9	-39
50	0x24	36
51	0xe5	-27
52	0x48	72
53	0xea	-22
54	0xf5	-11
55	0x57	87
56	0x0b	11
57	0x11	17
58	0xbb	-69
59	0xa5	-91
60	0xe2	-30
61	0x27	39
62	0xdf	-33
63	0xf4	-12
64	0xc3	-61
65	0x08	8
66	0x04	4
67	0xd6	-42
68	0xf5	-11
69	0xbe	-66
70	0xaf	-81
71	0x02	2
72	0x34	52
73	0xdf	-33
74	0xbf	-65
75	0xb5	-75
76	0xa6	-90
77	0xd3	-45
78	0x15	21
79	0xbd	-67
80	0xd8	-40
81	0x29	41
82	0xd6	-42
83	0x11	17
84	0x4e	78
85	0x34	52
86	0x66	102
87	0x3c	60
88	0x1e	30
89	0xf0	-16
90	0x29	41
91	0x1e	30
92	0xfe	-2
93	0xe5	-27
94	0xee	-18
95	0x0e	14
96	0x40	64
97	0xe5	-27
98	0x42	66
99	0xc6	-58
100	0x46	70
101	0xcb	-53
102	0x38	56
103	0xc3	-61
104	0xc1	-63
105	0x3e	62
106	0xf9	-7
107	0xad	-83
108	0xba	-70
109	0xdf	-33
110	0x4b	75
111	0xa0	-96
112	0xdc	-36
113	0xf7	-9
114	0xa1	-95
115	0x33	51
116	0x11	17
117	0x08	8
118	0xd5	-43
119	0x22	34
120	0xa1	-95
121	0xbe	-66
122	0xdf	-33
123	0x24	36
124	0x2f	47
125	0xd1	-47
126	0x35	53
127	0xc3	-61
128	0x67	103
129	0x25	37
130	0x35	53
131	0x27	39
132	0xae	-82
133	0x3e	62
134	0x0e	14
135	0x20	32
136	0xe7	-25
137	0xa2	-94
138	0xae	-82
139	0xf0	-16
140	0xb5	-75
141	0x27	39
142	0xd0	-48
143	0x31	49
144	0x68	104
145	0x07	7
146	0xca	-54
147	0x27	39
148	0xdf	-33
149	0x4f	79
150	0x02	2
151	0xa7	-89
152	0xda	-38
153	0xf5	-11
154	0xad	-83
155	0x00	0
156	0x33	51
157	0x06	6
158	0xe3	-29
159	0x13	19
160	0x35	53
161	0xf4	-12
162	0xe9	-23
163	0x60	96
164	0x30	48
165	0x9c	-100
166	0x44	68
167	0x10	16
168	0xd5	-43
169	0xc6	-58
170	0xbc	-68
171	0x1b	27
172	0xd0	-48
173	0x36	54
174	0xee	-18
175	0xe7	-25
176	0x1c	28
177	0x9c	-100
178	0x35	53
179	0xc3	-61
180	0x1c	28
181	0x0f	15
182	0x1e	30
183	0xb7	-73
184	0x1d	29
185	0xa6	-90
186	0x2c	44
187	0x44	68
188	0x09	9
189	0x96	-106
190	0x4c	76
191	0x4b	75
192	0xe5	-27
193	0x01	1
194	0xd6	-42
195	0xee	-18
196	0x55	85
197	0xc3	-61
198	0x00	0
199	0x28	40
200	0xf2	-14
201	0xe0	-32
202	0x3d	61
203	0x1d	29
204	0x0a	10
205	0x1a	26
206	0x01	1
207	0xf3	-13
208	0x2e	46
209	0xea	-22
210	0xb2	-78
211	0x63	99
212	0x3c	60
213	0x46	70
214	0x15	21
215	0xc4	-60
216	0xff	-1
217	0x1d	29
218	0x1f	31
219	0x0b	11
220	0x36	54
221	0x02	2
222	0x40	64
223	0x24	36
224	0xc6	-58
225	0x3b	59
226	0xdc	-36
227	0xad	-83
228	0xde	-34
229	0x00	0
230	0xf0	-16
231	0x38	56
232	0xc7	-57
233	0x59	89
234	0xbd	-67
235	0xb2	-78
236	0xe6	-26
237	0x56	86
238	0x28	40
239	0xad	-83
240	0x0b	11
241	0xfe	-2
242	0xac	-84
243	0xc3	-61
244	0xf6	-10
245	0x5d	93
246	0x25	37
247	0xed	-19
248	0xe4	-28
249	0xb2	-78
250	0x55	85
251	0xa4	-92
252	0xec	-20
253	0x0f	15
254	0xd1	-47
255	0xcd	-51

tfl.pseudo_qconst1 i1 [64, 3, 3, 32]
0	0x0f	15
1	0x43	67
2	0xb2	-78
3	0x17	23
4	0x43	67
5	0xe2	-30
6	0x3d	61
7	0x1d	29
8	0x1b	27
9	0xb2	-78
10	0x1f	31
11	0x3e	62
12	0xf9	-7
13	0xda	-38
14	0x18	24
15	0xbd	-67
16	0x43	67
17	0xfb	-5
18	0x32	50
19	0x5b	91
20	0xba	-70
21	0x4d	77
22	0xc8	-56
23	0x16	22
24	0xb5	-75
25	0xe2	-30
26	0xb2	-78
27	0x63	99
28	0x0f	15
29	0xfc	-4
30	0xb1	-79
31	0x0c	12
32	0xbe	-66
33	0xb6	-74
34	0x11	17
35	0x5c	92
36	0xb5	-75
37	0xee	-18
38	0xbf	-65
39	0xf4	-12
40	0xfc	-4
41	0xb2	-78
42	0xc2	-62
43	0x81	-127
44	0xba	-70
45	0x3c	60
46	0x13	19
47	0xee	-18
48	0x2d	45
49	0x0b	11
50	0xc2	-62
51	0xec	-20
52	0x91	-111
53	0x4d	77
54	0x24	36
55	0x1c	28
56	0x06	6
57	0x2c	44
58	0x03	3
59	0x0c	12
60	0xd1	-47
61	0x12	18
62	0xf4	-12
63	0x4f	79
64	0xfd	-3
65	0xda	-38
66	0x4f	79
67	0xf3	-13
68	0xb8	-72
69	0x19	25
70	0xfc	-4
71	0x56	86
72	0xce	-50
73	0x6a	106
74	0x2f	47
75	0x05	5
76	0xf6	-10
77	0x59	89
78	0xe1	-31
79	0xe7	-25
80	0x4a	74
81	0x38	56
82	0x1e	30
83	0x64	100
84	0xc2	-62
85	0xf6	-10
86	0x39	57
87	0x35	53
88	0xd7	-41
89	0x29	41
90	0xa9	-87
91	0xe2	-30
92	0x36	54
93	0xb7	-73
94	0xd4	-44
95	0xdf	-33
96	0x14	20
97	0xf0	-16
98	0xb5	-75
99	0x4e	78
100	0x30	48
101	0xdf	-33
102	0x1c	28
103	0xd6	-42
104	0xf1	-15
105	0xdc	-36
106	0xb4	-76
107	0x4a	74
108	0xe2	-30
109	0x96	-106
110	0x20	32
111	0xeb	-21
112	0xc1	-63
113	0xd3	-45
114	0xa5	-91
115	0x50	80
116	0x9a	-102
117	0x5b	91
118	0xd0	-48
119	0xbc	-68
120	0xe2	-30
121	0x99	-103
122	0xfe	-2
123	0xf5	-11
124	0xee	-18
125	0xe1	-31
126	0x10	16
127	0xf1	-15
128	0x9c	-100
129	0x1c	28
130	0x16	22
131	0x2c	44
132	0xf2	-14
133	0xe5	-27
134	0xdd	-35
135	0xa0	-96
136	0x85	-123
137	0xb4	-76
138	0x00	0
139	0xf9	-7
140	0x52	82
141	0x43	67
142	0xbb	-69
143	0xd6	-42
144	0xb1	-79
145	0xe5	-27
146	0x23	35
147	0xcd	-51
148	0x9c	-100
149	0x60	96
150	0xe9	-23
151	0x3b	59
152	0xc5	-59
153	0xa4	-92
154	0xcd	-51
155	0x58	88
156	0xc4	-60
157	0x1c	28
158	0xae	-82
159	0xd8	-40
160	0x38	56
161	0x24	36
162	0xd4	-44
163	0x2f	47
164	0xa1	-95
165	0xe0	-32
166	0xea	-22
167	0x5a	90
168	0x2d	45
169	0x9e	-98
170	0xf1	-15
171	0x3f	63
172	0xaa	-86
173	0xb0	-80
174	0x54	84
175	0xe8	-24
176	0x32	50
177	0x06	6
178	0xad	-83
179	0x1c	28
180	0xf4	-12
181	0xeb	-21
182	0x52	82
183	0xc1	-63
184	0xe3	-29
185	0xa7	-89
186	0x3d	61
187	0x47	71
188	0x3d	61
189	0x4e	78
190	0x69	105
191	0xde	-34
192	0x8a	-118
193	0xac	-84
194	0x22	34
195	0x3b	59
196	0x07	7
197	0xea	-22
198	0x46	70
199	0x58	88
200	0xff	-1
201	0xa7	-89
202	0x93	-109
203	0x44	68
204	0xa2	-94
205	0xea	-22
206	0x53	83
207	0xa5	-91
208	0x24	36
209	0xa7	-89
210	0xa3	-93
211	0x3e	62
212	0xb4	-76
213	0x0d	13
214	0xed	-19
215	0x39	57
216	0xd5	-43
217	0xbf	-65
218	0x26	38
219	0xab	-85
220	0x02	2
221	0x3b	59
222	0xf8	-8
223	0x5a	90
224	0xbd	-67
225	0xe3	-29
226	0xb8	-72
227	0x52	82
228	0x4c	76
229	0x15	21
230	0xf3	-13
231	0x3e	62
232	0x40	64
233	0xfb	-5
234	0x97	-105
235	0x52	82
236	0x30	48
237	0x20	32
238	0xd8	-40
239	0xa5	-91
240	0x32	50
241	0xfd	-3
242	0x08	8
243	0x40	64
244	0x97	-105
245	0xb9	-71
246	0xb4	-76
247	0x16	22
248	0x08	8
249	0x02	2
250	0x0c	12
251	0x4d	77
252	0xf3	-13
253	0x9d	-99
254	0xf9	-7
255	0xfa	-6

tfl.pseudo_qconst2 i1 [4, 256]
0	0xcc	-52
1	0xd3	-45
2	0xa7	-89
3	0xc7	-57
4	0xa8	-88
5	0x26	38
6	0xfd	-3
7	0x57	87
8	0xe0	-32
9	0x66	102
10	0xd4	-44
11	0x29	41
12	0xed	-19
13	0xf1	-15
14	0xbd	-67
15	0xba	-70
16	0x01	1
17	0xbd	-67
18	0x30	48
19	0x17	23
20	0x5e	94
21	0x96	-106
22	0x87	-121
23	0x92	-110
24	0x95	-107
25	0x10	16
26	0x51	81
27	0x9f	-97
28	0xff	-1
29	0xba	-70
30	0x37	55
31	0xf7	-9
32	0x56	86
33	0x03	3
34	0x8d	-115
35	0xbb	-69
36	0x55	85
37	0xaf	-81
38	0x1f	31
39	0xcc	-52
40	0x0d	13
41	0x43	67
42	0xa6	-90
43	0x91	-111
44	0x43	67
45	0x36	54
46	0xee	-18
47	0x91	-111
48	0x36	54
49	0x7a	122
50	0xd0	-48
51	0x39	57
52	0x4f	79
53	0xd9	-39
54	0xef	-17
55	0xed	-19
56	0xa3	-93
57	0x28	40
58	0x09	9
59	0xab	-85
60	0xfc	-4
61	0x18	24
62	0xb4	-76
63	0x9c	-100
64	0xe8	-24
65	0x19	25
66	0x20	32
67	0xe4	-28
68	0xad	-83
69	0xa6	-90
70	0x70	112
71	0x12	18
72	0x30	48
73	0x60	96
74	0x04	4
75	0x38	56
76	0x90	-112
77	0xc7	-57
78	0x4c	76
79	0xed	-19
80	0x1f	31
81	0x50	80
82	0x6b	107
83	0x0a	10
84	0x6a	106
85	0x4b	75
86	0xb7	-73
87	0xb8	-72
88	0x97	-105
89	0x18	24
90	0x0f	15
91	0x29	41
92	0x6a	106
93	0x10	16
94	0x1e	30
95	0x5f	95
96	0x8f	-113
97	0xfd	-3
98	0x3f	63
99	0xe9	-23
100	0xe4	-28
101	0xc6	-58
102	0xf4	-12
103	0x96	-106
104	0x8b	-117
105	0xae	-82
106	0xd7	-41
107	0x5b	91
108	0xd1	-47
109	0x41	65
110	0x6f	111
111	0x98	-104
112	0xbb	-69
113	0x40	64
114	0xee	-18
115	0xdd	-35
116	0xe3	-29
117	0x4c	76
118	0x22	34
119	0x4f	79
120	0xac	-84
121	0xd9	-39
122	0x4e	78
123	0x89	-119
124	0xad	-83
125	0xc1	-63
126	0x28	40
127	0x9b	-101
128	0x0f	15
129	0x4b	75
130	0x46	70
131	0x9a	-102
132	0x43	67
133	0x94	-108
134	0xd7	-41
135	0x41	65
136	0xea	-22
137	0x5e	94
138	0xc3	-61
139	0x8e	-114
140	0xdc	-36
141	0x9e	-98
142	0xe5	-27
143	0xb5	-75
144	0x87	-121
145	0x31	49
146	0x5b	91
147	0x1f	31
148	0x81	-127
149	0x34	52
150	0x9b	-101
151	0x05	5
152	0xa0	-96
153	0x02	2
154	0x54	84
155	0x39	57
156	0x96	-106
157	0xb2	-78
158	0x5b	91
159	0x84	-124
160	0x11	17
161	0x39	57
162	0xed	-19
163	0xde	-34
164	0x5b	91
165	0xb5	-75
166	0xd5	-43
167	0x92	-110
168	0xe1	-31
169	0x27	39
170	0x71	113
171	0x5e	94
172	0xa2	-94
173	0x4d	77
174	0x9b	-101
175	0xb4	-76
176	0x4c	76
177	0xab	-85
178	0xa8	-88
179	0x2f	47
180	0xd4	-44
181	0x5b	91
182	0xe6	-26
183	0xf2	-14
184	0xa2	-94
185	0x1b	27
186	0x58	88
187	0xa0	-96
188	0xe2	-30
189	0x45	69
190	0x2c	44
191	0xbd	-67
192	0xe6	-26
193	0x65	101
194	0xfc	-4
195	0x69	105
196	0x96	-106
197	0xe0	-32
198	0xa4	-92
199	0x3e	62
200	0x66	102
201	0x83	-125
202	0x38	56
203	0xd5	-43
204	0x3d	61
205	0xd7	-41
206	0xe9	-23
207	0x00	0
208	0xb2	-78
209	0x5f	95
210	0x6e	110
211	0x3b	59
212	0xf3	-13
213	0x49	73
214	0xce	-50
215	0x44	68
216	0xec	-20
217	0xb0	-80
218	0x19	25
219	0x8e	-114
220	0x8f	-113
221	0xa2	-94
222	0x03	3
223	0x35	53
224	0x12	18
225	0x50	80
226	0x54	84
227	0x2a	42
228	0x15	21
229	0xe6	-26
230	0xa4	-92
231	0x66	102
232	0xd2	-46
233	0x2a	42
234	0xb4	-76
235	0xa4	-92
236	0xc4	-60
237	0xba	-70
238	0x9d	-99
239	0x25	37
240	0x25	37
241	0xb7	-73
242	0xf2	-14
243	0x98	-104
244	0x0b	11
245	0xe4	-28
246	0x9f	-97
247	0xda	-38
248	0xed	-19
249	0x3b	59
250	0x9d	-99
251	0xe0	-32
252	0x53	83
253	0xd2	-46
254	0x35	53
255	0x02	2

tfl.pseudo_qconst3 i1 [256, 128]
0	0xec	-20
1	0xda	-38
2	0xea	-22
3	0x2d	45
4	0xd0	-48
5	0x02	2
6	0xb6	-74
7	0xf1	-15
8	0xfc	-4
9	0xc0	-64
10	0xf8	-8
11	0x18	24
12	0xdc	-36
13	0xb4	-76
14	0x13	19
15	0xb1	-79
16	0xe6	-26
17	0x25	37
18	0xff	-1
19	0xd7	-41
20	0x14	20
21	0x17	23
22	0x20	32
23	0x35	53
24	0xc0	-64
25	0xe1	-31
26	0xf8	-8
27	0x27	39
28	0xed	-19
29	0x49	73
30	0xf8	-8
31	0xba	-70
32	0x28	40
33	0xbc	-68
34	0x81	-127
35	0xbd	-67
36	0x17	23
37	0x2c	44
38	0x22	34
39	0xfa	-6
40	0x1f	31
41	0x27	39
42	0x48	72
43	0xab	-85
44	0xa1	-95
45	0x2f	47
46	0x08	8
47	0x27	39
48	0x20	32
49	0x29	41
50	0xec	-20
51	0x94	-108
52	0x20	32
53	0x0a	10
54	0xcf	-49
55	0xab	-85
56	0x60	96
57	0xd7	-41
58	0xfc	-4
59	0x16	22
60	0xdf	-33
61	0x19	25
62	0xb0	-80
63	0xfb	-5
64	0x5d	93
65	0x20	32
66	0xc4	-60
67	0x16	22
68	0xc2	-62
69	0xc7	-57
70	0x07	7
71	0xfd	-3
72	0x4e	78
73	0xfe	-2
74	0x37	55
75	0xbc	-68
76	0xb2	-78
77	0xcf	-49
78	0x22	34
79	0xdf	-33
80	0x2b	43
81	0x93	-109
82	0xfd	-3
83	0xfe	-2
84	0x35	53
85	0xc6	-58
86	0xa0	-96
87	0x96	-106
88	0x0f	15
89	0xb1	-79
90	0x32	50
91	0x14	20
92	0x54	84
93	0x28	40
94	0xb6	-74
95	0xbf	-65
96	0xf3	-13
97	0xce	-50
98	0xdf	-33
99	0xc9	-55
100	0x9d	-99
101	0xed	-19
102	0xe8	-24
103	0x15	21
104	0xd4	-44
105	0xcc	-52
106	0xd4	-44
107	0xeb	-21
108	0xa3	-93
109	0xe7	-25
110	0x12	18
111	0x2d	45
112	0x25	37
113	0xd7	-41
114	0xb6	-74
115	0x35	53
116	0x2e	46
117	0xd1	-47
118	0x07	7
119	0x37	55
120	0xc8	-56
121	0xf7	-9
122	0xf3	-13
123	0xb1	-79
124	0x46	70
125	0xc1	-63
126	0x00	0
127	0xfd	-3
128	0xfe	-2
129	0x27	39
130	0x68	104
131	0xca	-54
132	0x3d	61
133	0x25	37
134	0x45	69
135	0x61	97
136	0xff	-1
137	0xb7	-73
138	0x38	56
139	0xf3	-13
140	0xc3	-61
141	0x23	35
142	0xcc	-52
143	0x30	48
144	0x0d	13
145	0x17	23
146	0xe9	-23
147	0xcf	-49
148	0x4c	76
149	0x28	40
150	0x44	68
151	0x28	40
152	0x2b	43
153	0x68	104
154	0x25	37
155	0xf1	-15
156	0xc4	-60
157	0xce	-50
158	0xd3	-45
159	0x26	38
160	0xaa	-86
161	0xff	-1
162	0x0d	13
163	0x20	32
164	0x02	2
165	0xca	-54
166	0xc3	-61
167	0xdd	-35
168	0xf5	-11
169	0xbb	-69
170	0xf2	-14
171	0x38	56
172	0xa9	-87
173	0xca	-54
174	0xaf	-81
175	0xb9	-71
176	0xf6	-10
177	0x0a	10
178	0x1b	27
179	0x4b	75
180	0xb3	-77
181	0x73	115
182	0x08	8
183	0x2c	44
184	0xb6	-74
185	0x2e	46
186	0x48	72
187	0xed	-19
188	0x06	6
189	0xb3	-77
190	0x55	85
191	0x3f	63
192	0x14	20
193	0x1d	29
194	0x33	51
195	0x3c	60
196	0xad	-83
197	0x04	4
198	0x2c	44
199	0xdc	-36
200	0x0b	11
201	0x28	40
202	0xc2	-62
203	0xe9	-23
204	0xec	-20
205	0xe2	-30
206	0x9d	-99
207	0x44	68
208	0xbd	-67
209	0x0e	14
210	0xb6	-74
211	0x3f	63
212	0x33	51
213	0x3e	62
214	0x14	20
215	0x21	33
216	0x3d	61
217	0x50	80
218	0xae	-82
219	0xb2	-78
220	0x05	5
221	0x45	69
222	0x47	71
223	0xf1	-15
224	0xd9	-39
225	0x0f	15
226	0xf9	-7
227	0x55	85
228	0xcd	-51
229	0xfa	-6
230	0xbe	-66
231	0xd9	-39
232	0xd4	-44
233	0xb2	-78
234	0xa3	-93
235	0x4f	79
236	0x43	67
237	0x1a	26
238	0x0f	15
239	0xb4	-76
240	0xee	-18
241	0x1c	28
242	0xd0	-48
243	0xae	-82
244	0xe5	-27
245	0x05	5
246	0x7f	127
247	0xc8	-56
248	0x18	24
249	0x12	18
250	0x12	18
251	0x31	49
252	0x1e	30
253	0xca	-54
254	0x19	25
255	0x28	40
